mlruns/633984049566377248/84558767e5454477a1a2fda5a214901b/artifacts/best_model/data/model.pth (torch, 292882 bytes, 11 tensors)

weight f4 [7599, 8]
000000 dd fa 74 3e a8 37 51 be c1 b2 93 be 49 f1 75 3e
       0.23923822 -0.20431387 -0.28847316 0.24017824
000010 28 e9 88 be 6b be 85 be 04 b2 61 3e d7 16 da b7
       -0.26740384 -0.2612184 0.22040564 -2.599826e-05
000020 02 7a cf 3d 06 9d a7 bd 66 20 d0 bd b3 e6 c9 3d
       0.10130693 -0.08184247 -0.101624295 0.098584555
000030 e2 4b f1 bd 80 cb e6 bd 8e ca cd 3d 26 ba 99 bd
       -0.117820516 -0.11269283 0.100484 -0.07506208
000040 41 72 6d be 16 7b 66 3e 97 69 4b 3e 6d a9 57 be
       -0.23188116 0.22507891 0.19864498 -0.21060725
000050 3d 81 4d 3e a8 43 5c 3e ad fb 5c be 36 97 6d 3e
       0.20068832 0.21510184 -0.21580382 0.23202214
000060 48 f7 09 be 8a 85 ee 3d a2 54 d1 3d 6c bb 03 be
       -0.13473237 0.11646564 0.102212206 -0.12864465
000070 fc 43 c8 3d 4d 23 eb 3d 97 30 f6 bd 0b f7 21 3e
       0.09778592 0.114813425 -0.120209865 0.15816896
000080 67 d9 81 3d 9b fc 89 be 78 be 83 be 0e 97 6d 3e
       0.06340294 -0.26950535 -0.25731254 0.23202154
000090 f9 81 85 be 3f e8 87 be e1 a4 67 3e 80 79 93 3c
       -0.26075724 -0.26544377 0.2262149 0.018002272
0000a0 07 f1 e1 3d f8 b7 10 be c9 f7 0d be 7b ed 09 3e
       0.110323004 -0.14132679 -0.13864054 0.13469498
0000b0 43 02 00 be af f0 09 be 32 d5 ed 3d f3 7e 06 3e
       -0.12500863 -0.1347072 0.116129294 0.13134365
0000c0 80 40 1f bc 9e cb 3b 3c 69 37 0d 3c 8e 7a 29 bc
       -0.009719968 0.01146212 0.008619168 -0.010344161
0000d0 00 bf bd 3b 1e 1d 88 3c 90 af 4f bb 82 17 e4 bb
       0.0057905912 0.016615447 -0.0031690337 -0.00696081
0000e0 20 7b 59 bb 78 31 a9 bc 0a ce 3c 3c 33 24 00 3c
       -0.003318496 -0.020653471 0.011523733 0.007821131
0000f0 44 0a 1b bb 99 ea 4c b9 da b0 95 3c 2b 80 99 bb
       -0.0023657242 -0.0001954235 0.018272806 -0.0046844683
000100 ec 8d 78 3b a5 5d ae bb bd 40 f7 ba 41 49 6a bc
       0.003792639 -0.005321222 -0.0018863898 -0.014299692
000110 cb b0 2c bc fc ef 27 3c 59 4c ac bb 72 7a bd bc
       -0.010540198 0.010250088 -0.005258125 -0.023129676
000120 ae ab 14 be bb f7 07 3e 71 4f da 3d 0f 9a 03 be
       -0.14518616 0.13278095 0.106596835 -0.12851737
000130 8f 98 de 3d 16 dc f3 3d 65 67 2d be 66 67 20 3e
       0.10868942 0.119072124 -0.16933973 0.15664443
000140 86 cf ae bd 6f 11 ac 3d a4 a5 a4 3d 15 ff 96 bd
       -0.08535676 0.08401763 0.08039406 -0.07372872
000150 62 e5 93 3d 00 cb aa 3d a2 70 b8 bd 48 74 c3 3d
       0.07221486 0.083395004 -0.09005858 0.09543663
000160 7d c3 83 bd ad f9 88 be 77 34 97 be 40 4e 79 3e
       -0.06433771 -0.26752988 -0.29532215 0.24346256
000170 26 f1 90 be 71 86 94 be 24 55 77 3e 97 5f f2 3d
       -0.28308982 -0.2900882 0.24153572 0.118346386
000180 ca 25 10 3e 13 50 e6 be c0 d7 fd be 16 f0 cc 3e
       0.14076915 -0.44982967 -0.49578667 0.4002692
000190 34 47 f3 be a5 b1 ea be ca 0d cb 3e 40 8d d0 3d
       -0.4751526 -0.45838657 0.39658958 0.10183191
0001a0 80 35 5f 3d 65 9e 8e bd c1 d4 83 bd 64 17 5a 3d
       0.05449438 -0.06963805 -0.06437064 0.053244963
0001b0 e1 37 6d bd 42 76 65 bd b5 96 34 3d 34 87 4c bd
       -0.05791462 -0.056020983 0.044089038 -0.049933627
0001c0 c8 b3 2c 3e e7 50 9f be 59 a4 a3 be 0a 47 64 3e
       0.16865456 -0.3111641 -0.31961325 0.22292724
0001d0 05 06 ac be 22 00 a0 be 72 90 74 3e ae c5 8c be
       -0.33598343 -0.312501 0.23883227 -0.27494568
0001e0 b7 53 b2 bd 6c 60 b2 3d 69 0f a6 3d 66 2e bb bd
       -0.087073736 0.08709797 0.08108408 -0.09139709
0001f0 20 65 b5 3d 80 c4 a2 3d e3 07 88 bd 53 26 b9 3d
       0.08857179 0.07947636 -0.06642129 0.09040513
000200 55 a2 1a bc 2d 3d 87 be 83 78 92 be 2e d9 2f 3e
       -0.009438117 -0.2641386 -0.28607568 0.17172691
000210 f6 f9 91 be cd 51 88 be 4c 22 32 3e 68 f2 98 3d
       -0.28511018 -0.2662491 0.17395896 0.0746811
000220 18 dc 24 3e ea 57 fb be e9 8b 04 bf 2e de cc 3e
       0.16099584 -0.4909051 -0.51775986 0.4001326
000230 a0 bf 07 bf 73 a9 03 bf 3f d3 cb 3e 87 87 14 bc
       -0.5302677 -0.51430434 0.39809605 -0.009065515
000240 57 4f fc 3b f0 a6 91 bc 34 3c a2 bb 92 c7 b8 bc
       0.0076998877 -0.017779797 -0.0049510244 -0.0225561
000250 e1 24 55 3c 31 91 03 3c 08 31 87 bc eb 3b 12 bc
       0.013009281 0.008030222 -0.016502872 -0.008925418
000260 23 cf a0 bd 75 06 21 bd f9 a4 48 3d b0 46 81 bd
       -0.07852008 -0.0393128 0.048985455 -0.06312311
000270 1a 8c 77 3d 86 73 2c 3d 88 7d 81 bd bb 25 af 3d
       0.060436346 0.04210236 -0.06322771 0.085521184
000280 20 20 cc 3d f3 9c 87 be a9 eb 9a be ba ea 44 3e
       0.09967065 -0.2648693 -0.3025792 0.19230166
000290 2c 84 98 be 56 35 87 be 00 dc 41 3e 11 d6 51 bd
       -0.2978834 -0.2640788 0.1893158 -0.05122954
0002a0 9e b1 60 bd 5f a3 c0 3d fb 3d 96 3d 9f bc a7 bd
       -0.05485689 0.094061606 0.073360406 -0.081902735
0002b0 48 20 82 3d d7 2c 95 3d 63 af a5 bd 96 ac b2 3d
       0.063538134 0.07283943 -0.08090093 0.087243244
0002c0 f6 3f d1 3d 68 13 bd bd 1e 50 ae bd a7 1a ee 3d
       0.10217278 -0.09232217 -0.08511375 0.11626177
0002d0 83 56 b6 bd 36 1b 94 bd 64 e8 b5 3d 97 18 85 3d
       -0.089032196 -0.072317526 0.088822156 0.06498831
0002e0 26 12 b8 3d 9b f0 6c be 09 ba 6c be 65 cd 45 3e
       0.089878365 -0.23138659 -0.23117842 0.19316633
0002f0 f0 b1 59 be ad 5e 67 be a5 12 54 3e 2c d5 b0 3c
       -0.21259284 -0.2259471 0.20710237 0.021586023
000300 2e 85 a8 bd bf 7a 65 be 3d eb 41 be ec 52 3a 3e
       -0.08228527 -0.22410105 -0.18937393 0.18195695
000310 62 d8 39 be a9 4e 4c be f0 d4 47 3e 4b 82 89 3e
       -0.1814895 -0.19951881 0.19514823 0.26857218
000320 d5 b2 5e 3d d8 fd 94 bd 2f b6 99 bd 05 01 9d 3d
       0.054369766 -0.07274979 -0.07505452 0.0766621
000330 6c b1 91 bd 6f bf 7a bd 18 ba 90 3d b6 a4 52 bd
       -0.07113919 -0.06121772 0.070667446 -0.05142661
000340 11 ce 96 be 41 2f b1 bd 26 4d 26 be f0 8d d6 bc
       -0.2945409 -0.08651591 -0.16240367 -0.026190728
000350 74 0e 0a be 56 41 db bd 8e e0 b0 3a ab 82 98 3e
       -0.13482076 -0.10705821 0.0013494657 0.29787192
000360 7e 70 9d 3d ab b3 48 be 1f 60 4a be 96 fd 2b 3e
       0.07687472 -0.19599788 -0.1976323 0.16795954
000370 ca 3d 2e be 15 b7 45 be c1 1c 1a 3e 12 25 0f bc
       -0.17015758 -0.19308122 0.15050031 -0.008736866
000380 10 85 02 be d7 e8 8d be 80 4b 8f be af 64 81 3e
       -0.12746072 -0.27716705 -0.2798729 0.25272128
000390 9a d9 85 be 9a a1 90 be c6 98 76 3e f9 46 62 3e
       -0.2614258 -0.28248292 0.24081716 0.22097386
0003a0 19 d1 8f bd 03 3d bc 3d 8d 89 ad 3d ec f4 a9 bd
       -0.07022304 0.091913246 0.08473501 -0.08298668
0003b0 ea 68 9f 3d b4 d6 a5 3d 86 1b c1 bd 35 b8 b0 3d
       0.07783683 0.08097592 -0.09429078 0.08628885
0003c0 34 23 34 b9 66 e2 d8 bb d4 06 d9 bb 93 1c 29 3c
       -0.00017179252 -0.0066187857 -0.0066231284 0.010321754
0003d0 65 9f 62 3b c9 d5 a8 3b e1 d1 21 3c 80 4f 88 3b
       0.003457987 0.0051524383 0.009876699 0.0041598678
0003e0 c6 05 22 3c 5d a0 5c be 82 f6 7e be 03 72 25 3e
       0.009889072 -0.21545549 -0.24898723 0.16156773
0003f0 f2 fb 68 be af 62 80 be 11 33 32 3e fc b3 51 3d
       -0.2275236 -0.2507529 0.17402293 0.051197037

weight f4 [725, 8]
000000 2f f5 17 bf d5 c0 14 bf 73 ae 17 bf a9 75 18 3f
       -0.59358495 -0.5810674 -0.59250563 0.59554535
000010 c8 d0 17 3f 11 36 18 3f b8 23 1c bf 2f cf 17 3f
       0.5930295 0.594575 -0.60992 0.5930051
000020 db d8 da 3d 86 88 e5 3d d1 be ff 3d d9 95 da bd
       0.10685893 0.112076804 0.12487567 -0.106731124
000030 99 d2 d5 bd 32 ed a7 bd ac 9a 98 3d 97 99 d3 bd
       -0.10440559 -0.08199538 0.07451376 -0.10332029
000040 a4 a7 0a bf 59 0e 10 bf f0 57 11 bf bf f7 11 3f
       -0.5416205 -0.5627189 -0.56774807 0.57018656
000050 89 78 0f 3f 7f a9 0d 3f 32 5f 10 bf 19 3c 11 3f
       0.560433 0.55336756 -0.56395257 0.56732327
000060 38 5f 28 bd 43 b2 f5 bc 99 27 0f bd 0c c7 11 3d
       -0.041106433 -0.029992228 -0.034949873 0.035590217
000070 00 b5 04 3d 3f ed 32 3d 8a f6 1f bd 72 93 d4 3c
       0.032399178 0.043683287 -0.039053477 0.025949214
000080 0b 8c 09 be ee bd e0 bd 15 4b e8 bd 65 b2 e1 3d
       -0.13432328 -0.10973726 -0.11342446 0.11020354
000090 17 8e fa 3d b2 9f dd 3d 26 f9 07 be 60 87 0b 3e
       0.12234133 0.10821475 -0.13278636 0.1362586
0000a0 64 6c 02 bd d8 76 39 bd 14 bf 24 bd c0 58 f3 3c
       -0.03184165 -0.045279354 -0.04022129 0.029705405
0000b0 85 01 f1 3c e6 f9 24 3d 25 27 a4 bc 5f f1 5e 3d
       0.02941967 0.040277384 -0.020038197 0.05442941
0000c0 4a 20 0e bf 36 89 17 bf df f6 13 bf 5d 87 18 3f
       -0.5551802 -0.5919374 -0.5779857 0.5958155
0000d0 af b8 15 3f d0 f3 13 3f ed a6 16 bf 51 aa 17 3f
       0.5848493 0.57793903 -0.5884846 0.5924426
0000e0 7b 4c 95 be 7e be 8f be bc f9 88 be 61 eb 82 3e
       -0.29159912 -0.28075022 -0.26753032 0.25570205
0000f0 dc 4d 8a 3e f8 5c 90 3e 15 4d 98 be 98 1e 94 3e
       0.27012527 0.2819593 -0.2974631 0.2892959
000100 6d b5 10 3e a4 1e 1d 3e 63 9a 0a 3e 25 02 fe bd
       0.14131708 0.1534372 0.13535456 -0.12402753
000110 ef 30 0a be 14 66 10 be 2a e1 20 3e a5 ba 22 be
       -0.13495229 -0.1410144 0.15710893 -0.15891512
000120 5e 81 fa be f3 d9 ea be 28 5d e9 be 78 c1 f0 3e
       -0.48926824 -0.45869407 -0.45578885 0.47022605
000130 28 f6 eb 3e a8 78 ef 3e d7 7b f8 be 72 fc f1 3e
       0.4608624 0.4677174 -0.48531982 0.47262913
000140 62 21 aa bd 88 3b d4 bd d1 96 97 bd 7f e1 a0 3d
       -0.083071485 -0.10362917 -0.07401813 0.0785551
000150 6e 1e bf 3d 63 e0 c7 3d 2e 8c e8 bd bb a2 cd 3d
       0.09331976 0.09759595 -0.11354862 0.10040804
000160 ee 21 4b 3e 0a 44 66 3e ad f4 5e 3e 15 01 4f be
       0.19837162 0.22486892 0.21773024 -0.20215257
000170 3f 01 54 be a2 4e 5d be 44 a5 52 3e f5 ac 4d be
       -0.207036 -0.21612027 0.20570856 -0.20085509
000180 a8 3a 39 3e 30 1e 1f 3e 13 31 17 3e ff 44 26 be
       0.18088782 0.1553886 0.14764814 -0.16237257
000190 ff a5 1f be ca 17 14 be e9 47 0c 3e 66 bc 15 be
       -0.15590666 -0.144622 0.13699307 -0.1462265
0001a0 a4 15 00 3e 85 5f f6 3d a8 1c ef 3d 1a f1 02 be
       0.12508255 0.12029938 0.116753876 -0.12787285
0001b0 df 52 09 be 38 e4 f0 bd 43 11 ca 3d 3a ba 0b be
       -0.13410519 -0.11762279 0.09866574 -0.13645259
0001c0 e3 a3 66 be 6a 2e 5c be ec 17 52 be 69 60 57 3e
       -0.22523455 -0.2150208 -0.20516938 0.21032871
0001d0 22 77 81 3e fc ec 55 3e dc 0d 6c be a6 c7 5c 3e
       0.25286204 0.20891184 -0.23052162 0.21560535
0001e0 ff b7 c8 bd 54 67 ac bd 3a b8 ad bd e6 82 a8 3d
       -0.098007195 -0.08418146 -0.08482404 0.08228092
0001f0 80 bc a9 3d f3 a3 a2 3d 27 b9 cc bd 1d 59 93 3d
       0.08287907 0.07941427 -0.099962525 0.071947314
000200 55 58 b3 bd 25 de 94 bd 8f 80 9d bd 0c dd bd 3d
       -0.087570824 -0.07268933 -0.07690536 0.09270677
000210 29 4a b3 3d 38 48 9e 3d 84 f2 cf bd c4 17 89 3d
       0.08754379 0.077286184 -0.10153678 0.06693986
000220 a2 96 02 bf ce f9 fc be 75 ee f9 be 03 7a 01 3f
       -0.510111 -0.49409336 -0.4881474 0.505768
000230 43 33 03 3f d4 2c 00 3f de a1 00 bf 98 e3 fd 3e
       0.51250094 0.500684 -0.5024699 0.49587703
000240 b1 2e e5 be b0 bd db be ce ca e2 be 51 67 e0 3e
       -0.44762185 -0.42918158 -0.44295353 0.43828824
000250 49 45 ef 3e 66 f4 e7 3e 7b e4 e7 be 1a 7e e9 3e
       0.46732548 0.4530365 -0.45291504 0.4560402
000260 1f a7 63 be 4b e7 75 be 99 0d 51 be 36 42 71 3e
       -0.2223172 -0.24014013 -0.20415343 0.23560414
000270 b2 b6 63 3e 7b 20 61 3e 0d a7 69 be 1a a5 5f 3e
       0.22237661 0.21985047 -0.22817631 0.21840325
000280 3b a9 ff be f0 3f fb be f8 02 01 bf ce c5 f6 3e
       -0.499338 -0.49072218 -0.50395155 0.48197788
000290 5e 96 f7 3e 79 7e ff 3e 0c 31 05 bf 6f e0 00 3f
       0.4835691 0.49901178 -0.52027965 0.5034246
0002a0 6e 22 1e be 78 ee 12 be e3 15 1b be f4 c6 0c 3e
       -0.15442821 -0.14348781 -0.15145068 0.1374777
0002b0 da 08 10 3e b3 57 34 3e f7 ae 30 be a9 08 25 3e
       0.14065877 0.1761158 -0.17254244 0.16116585
0002c0 f0 87 84 3e 20 77 86 3e 11 39 8d 3e eb b7 92 be
       0.25884962 0.2626276 0.275826 -0.28655943
0002d0 6d 42 84 be 98 a9 84 be 62 f3 6e 3e cf d6 8b be
       -0.2583193 -0.2591064 0.2333503 -0.27312323
0002e0 6d 4e a6 3e 52 84 b5 3e 01 ed a8 3e ea c7 ab be
       0.3248171 0.35452515 0.3299332 -0.3355096
0002f0 c9 6e aa be 59 0b b3 be 32 4b a7 3e 01 a8 ab be
       -0.33287647 -0.34969595 0.32674557 -0.33526614
000300 3a 96 81 3e be 3a 71 3e b9 49 84 3e 7d aa 6d be
       0.25309926 0.23557565 0.25837496 -0.23209567
000310 95 5b 78 be 43 9f 77 be ed bf 78 3e 82 fc 6b be
       -0.24253686 -0.24181847 0.24291964 -0.23045543
000320 d2 46 ff 3d 98 b6 1f 3e 46 5b 10 3e 5a d7 2a be
       0.1246468 0.15596998 0.14097318 -0.16683713
000330 c1 9a 24 be ed ed 17 be 2a 1b 1a 3e db 54 31 be
       -0.16074659 -0.14836855 0.15049425 -0.17317526
000340 47 a8 23 3e 66 aa 35 3e 31 1a 2f 3e 6d 5b 42 be
       0.15982161 0.17740783 0.17099835 -0.18980189
000350 f0 08 29 be 9d ed 2e be 85 82 26 3e f5 d3 35 be
       -0.16507316 -0.1708283 0.16260727 -0.17756636
000360 66 ac 2b 3d 6f 7f 7b 3d 93 50 3c 3d 61 b2 43 bd
       0.04191246 0.061400827 0.04597528 -0.047777537
000370 79 e9 96 bc f7 d1 3a bd ab db 49 3d 9c ed de bc
       -0.018421875 -0.045610394 0.049281757 -0.02721291
000380 ea 38 2c 3e e8 51 4b 3e 4b f8 3d 3e a7 c3 44 be
       0.16818586 0.19855464 0.18551748 -0.1921526
000390 e1 1b 4b be d6 fd 3d be c7 45 3a 3e aa 27 3f be
       -0.19834854 -0.18553862 0.1819068 -0.18667474
0003a0 a7 39 f2 bd 36 56 da bd 9b f5 c7 bd 99 88 e6 3d
       -0.118274026 -0.10660975 -0.097636424 0.11256523
0003b0 2c b4 f5 3d af d1 ce 3d 29 4b 03 be fd c8 d5 3d
       0.11997256 0.10098588 -0.1282164 0.10438726
0003c0 39 d3 4f 3c 98 f5 2d bc 95 cf e4 bb 63 2b da 39
       0.012684637 -0.010617636 -0.0069827535 0.00041612526
0003d0 90 36 06 3c b2 86 56 3a 58 a3 9b bc 16 5d 56 ba
       0.00819172 0.00081835233 -0.018998787 -0.0008177323
0003e0 b5 f8 97 3d 7e 3b 8b 3d 55 f2 a3 3d 77 13 a5 bd
       0.07420484 0.067984566 0.080052055 -0.08060353
0003f0 6a 8f ab bd 38 c9 8e bd 13 9d 8b 3d fe 9b 7f bd
       -0.083769634 -0.06971973 0.06817069 -0.062404625

weight f4 [64, 16]
000000 4f 59 8b 3a 99 00 03 3c 66 52 99 3b 7d 46 aa 3b
       0.0010631474 0.007995748 0.004679012 0.005196391
000010 c4 9a b3 3b 7e bb 3e bc a7 37 26 3c 01 1e 2a 3c
       0.005481096 -0.011641381 0.0101451045 0.01038313
000020 70 52 90 b9 00 ca 71 bc 5e 71 be ba 2a 6d f8 bb
       -0.0002752724 -0.014757633 -0.0014529636 -0.0075813727
000030 aa b2 6d bc 4e d9 e5 b9 40 a6 d6 39 45 df fa ba
       -0.014507929 -0.00043840188 0.00040941127 -0.0019140026
000040 f5 61 ac bd 41 54 0e 3e 81 23 8a 3e 33 fc 16 be
       -0.08417121 0.13899328 0.26980212 -0.14744644
000050 77 4e 79 3e ee ab 35 3e 93 d4 0a be 39 9a 72 bc
       0.24346338 0.17741367 -0.13557653 -0.014807277
000060 9e 04 49 3e c2 b9 63 3e 60 ee 73 3e f1 f1 6d be
       0.19630668 0.2223883 0.23821402 -0.23236825
000070 f7 bc 55 be 97 cc 5d be 91 bd 56 3e b0 fc 6b be
       -0.20872866 -0.21660076 0.20970751 -0.23045611
000080 b8 52 dd bb 69 86 4a 3c 0d 6c 24 3b 17 23 ed ba
       -0.0067542456 0.012361147 0.0025088817 -0.0018092123
000090 63 a6 0d bc a2 7d 31 3c 92 e5 ed 3b e6 21 27 3c
       -0.008645627 0.010833176 0.007260033 0.010200953
0000a0 93 22 8d bc 77 e5 37 3c 62 70 53 bc 4b da d1 3a
       -0.0172284 0.011224142 -0.012905212 0.0016010491
0000b0 be 7d 45 3c 7b 61 af 3c 81 57 71 bc 32 3d 2a 3c
       0.012053905 0.021408787 -0.014730335 0.010390567
0000c0 ab 2e 91 3b b6 1c 87 3a a2 c0 df bb 0b 73 26 bb
       0.004430612 0.0010308239 -0.0068283835 -0.002539816
0000d0 65 cd 56 bc 57 ce da ba 0f 3e a5 bb 7d 45 3b bb
       -0.013110493 -0.0016693574 -0.0050427984 -0.0028575354
0000e0 e7 24 1f bc 92 44 92 bc 87 97 77 bc db fd 73 bb
       -0.009713388 -0.017854962 -0.0151118105 -0.0037230167
0000f0 71 dc 9b 3a 90 62 60 bb 32 39 64 3b c6 cd 85 3c
       0.0011891258 -0.0034238435 0.003482413 0.016333472
000100 b2 43 11 bc 5e c3 bb 3b a4 13 2a bb 1c 8e de 3b
       -0.0088662375 0.0057300767 -0.0025951648 0.006791843
000110 56 09 8c 3a 94 21 8a 3c 2b ec 1e 3b fc 23 7b bc
       0.0010683935 0.016861714 0.0024249654 -0.015328404
000120 b8 87 3f bc 78 75 d8 bb 15 af b4 3b db 2e 61 3b
       -0.011690073 -0.0066058002 0.0055140355 0.0034360203
000130 7d 16 43 3c e8 74 1a 3c 73 b1 c8 3b a5 a5 22 3b
       0.011907217 0.009427287 0.006124669 0.002481797
000140 a9 e5 88 3b 39 24 a2 3b dc 33 11 3c 50 72 c7 3b
       0.0041777682 0.0049481657 0.008862462 0.006086625
000150 93 a1 d4 bb 04 dd 51 bb 80 c6 53 bb 55 6a 61 3c
       -0.0064889877 -0.0032022605 -0.003231436 0.013758262
000160 64 43 a0 bb c9 cf 26 bc 3e f9 76 39 96 65 96 3b
       -0.004890846 -0.010181376 0.00023553238 0.0045897467
000170 2b 58 9e 3c 49 12 92 3b 59 19 d1 bb ef 7f a6 3b
       0.019329151 0.004457746 -0.0063811955 0.005081169
000180 7c 66 c6 bd 53 a7 0e 3e f2 42 8c 3e 6d eb d3 bd
       -0.09687516 0.13931017 0.27394825 -0.10347638
000190 94 53 70 3e 94 07 1f 3e ab 64 85 bd 1a fa bc bc
       0.23469383 0.15530235 -0.065133415 -0.023068476
0001a0 ae 80 72 3e 29 55 86 3e 07 22 80 3e 95 50 91 be
       0.236819 0.26236847 0.2502596 -0.28381792
0001b0 2e 95 91 be 78 c2 8c be a4 96 90 3e 86 ae 84 be
       -0.28434128 -0.27492118 0.2823993 -0.259144
0001c0 98 9b d1 bd 09 f4 15 3e 29 5a 92 3e 64 e4 d9 bd
       -0.10234755 0.14643873 0.28584412 -0.10639265
0001d0 a8 88 7c 3e 06 b8 27 3e cb 52 8c bd ba 94 e6 bc
       0.24661505 0.16378793 -0.06851729 -0.02814709
0001e0 36 75 67 3e 7c e8 88 3e 3b fa 83 3e da e1 7b be
       0.22603306 0.26739872 0.25776848 -0.24597874
0001f0 72 35 8e be bf 3b 83 be 9f a3 8a 3e cb 8d 85 be
       -0.2777515 -0.2563152 0.27077958 -0.26084742
000200 07 e2 04 bd ea ed 0d 3e ab 8e 52 3e 6a b0 07 be
       -0.03244212 0.13860288 0.20562236 -0.1325089
000210 36 f6 2f 3e c6 18 23 3e ff 0f 06 be 4a 4f a6 bd
       0.17183766 0.15927419 -0.1309204 -0.08120592
000220 f7 9a 06 3e 88 4a 32 3e cc 94 3c 3e cd 2e 34 be
       0.13145052 0.17411244 0.18416137 -0.17595978
000230 ad 4f 39 be 65 42 3f be c9 30 3b 3e d1 ca 37 be
       -0.180968 -0.18677671 0.18280329 -0.17948462
000240 fa 8f 06 bd b9 3d e1 3d 2c 16 48 3e e2 a8 28 be
       -0.03285215 0.10998101 0.19539708 -0.16470674
000250 dc 14 24 3e 1c 86 13 3e 49 6b 06 be b9 6e b8 bd
       0.16023582 0.14406627 -0.13126864 -0.09005494
000260 ac cc ff 3d ea d8 3c 3e 7d 28 25 3e 3f da 2a be
       0.1249021 0.18442121 0.16128726 -0.16684817
000270 fc 96 1f be 87 52 25 be ed 07 2b 3e 6b 26 2f be
       -0.1558494 -0.16144763 0.16702242 -0.17104499
000280 3e 04 9c 3c a5 22 9b 3c 21 3f 1e bc 0d 97 2d 3c
       0.019044992 0.018937418 -0.009658606 0.010595095
000290 bb d4 2c bc 0d f1 84 3c 85 52 25 3b 2b 4b 02 bc
       -0.010548766 0.016228223 0.0025226187 -0.007952492
0002a0 f5 56 91 3a 73 76 57 3b 73 1e d9 3a 66 ab 4d bc
       0.0011088537 0.0032876998 0.0016564861 -0.012553072
0002b0 05 17 2b bb 8c 7f 9d bb 09 d9 a4 bb c1 fd f9 3b
       -0.002610625 -0.0048064645 -0.0050307554 0.007629127
0002c0 67 41 87 bd ae d5 16 3e 74 a8 72 3e 37 c8 15 be
       -0.066042714 0.1472995 0.23697072 -0.14627157
0002d0 da e7 5a 3e 0e 3a 2c 3e f8 13 f6 bd 69 08 33 bd
       0.21377507 0.16819021 -0.120155275 -0.043709192
0002e0 8d 4d 41 3e d3 31 40 3e 34 86 52 3e d8 2b 56 be
       0.1887724 0.18769006 0.20559007 -0.20915163
0002f0 67 3c 4d be 5e 15 42 be 15 da 50 3e e1 e6 54 be
       -0.20042573 -0.18953463 0.20395692 -0.20791198
000300 64 4d 19 3b f2 43 a0 bc d8 64 da 3b 92 9e 34 bc
       0.0023392076 -0.019563649 0.0066648535 -0.011024134
000310 ef db c8 3b 7c 52 c6 3a a4 1d b2 bb ed 35 84 bc
       0.0061297338 0.0015130783 -0.0054356623 -0.016138995
000320 58 0b 05 bc 4a a7 76 bc 00 bd c9 bb a0 93 33 bc
       -0.00812038 -0.015054533 -0.0061565638 -0.0109604895
000330 fe 44 bf 3b 9b 7a 21 bc fc 49 7b bb f6 73 21 bb
       0.005837082 -0.009855892 -0.0038343659 -0.0024635768
000340 9e 49 9c bd 1e 44 ec 3d 84 ae 8d 3e f6 d9 c7 bd
       -0.07631229 0.1153643 0.27672207 -0.097583696
000350 8e c7 5f 3e 7e 09 39 3e 2d 50 a1 bd 42 d0 bf bc
       0.21853468 0.18070027 -0.078766204 -0.023414735
000360 46 2f 6a 3e 30 4f 8a 3e bd 45 8b 3e c9 4c 89 be
       0.22869596 0.2701354 0.27201644 -0.26816395
000370 16 e9 87 be 18 6a 83 be b2 55 86 3e 9e db 8a be
       -0.26545018 -0.2566688 0.26237255 -0.2712068
000380 02 1a 99 bd 7e 5c 0f 3e 35 0c 9e 3e 88 0d cc bd
       -0.07475664 0.14000127 0.30868688 -0.099635184
000390 28 c6 70 3e 87 db 4c 3e d0 84 b8 bd 98 a1 e8 bc
       0.2351309 0.20005618 -0.09009707 -0.028397366
0003a0 ab 7d 6c 3e 1a 42 8f 3e 0a ea 87 3e 32 47 89 be
       0.23094814 0.2798012 0.26545745 -0.2681213
0003b0 a9 e2 89 be 67 bb 8a be 30 63 8c 3e ef b0 8a be
       -0.2693074 -0.27096102 0.27419424 -0.27088115
0003c0 21 e0 60 ba 0d 2a 9c ba 73 f4 93 bc 9d ff b6 bc
       -0.00085783197 -0.0011914388 -0.018060898 -0.022338683
0003d0 53 c9 24 bc fd 16 90 bb 20 75 fa 3a 8e 7f 65 3c
       -0.010057765 -0.0043972717 0.0019108392 0.014007462
0003e0 67 cb 8f 3c b0 64 22 bc bc f9 11 bc 32 f0 16 bb
       0.017553044 -0.009911701 -0.008909639 -0.002303135
0003f0 7f 8e 11 3c 01 a4 d3 3a 01 f3 30 3c c8 c2 97 bc
       0.008884071 0.00161469 0.010800124 -0.018525496

bias f4 [64]
000000 36 3c 48 be 1d da 48 3e 00 65 c6 bd be cc 4f be
       -0.19554219 0.19614454 -0.09687233 -0.20292947
000010 fa e0 18 be 70 71 5f be 84 c1 a7 3e f5 52 bb 3e
       -0.14929572 -0.21820617 0.32764828 0.3658673
000020 ce df f8 3d b6 fa dd 3d 66 8b 57 be ea af 2b 3e
       0.12152062 0.10838835 -0.2104927 0.16766325
000030 00 55 58 bd 40 2f 92 3e e1 23 c2 3e 6e e4 23 be
       -0.052815437 0.28551674 0.37917998 -0.16005108
000040 54 1e 3b be ad 46 93 3e 22 11 45 3e be f2 42 3e
       -0.18273288 0.2876486 0.19244817 0.19037911
000050 5a 45 e8 bc ec 7b b2 bd 55 cd 0f 3e d6 77 6f 3e
       -0.028353382 -0.087150425 0.14043172 0.23385558
000060 6a de 13 be 96 93 b6 3e 81 53 79 3e bf 52 c6 3e
       -0.14440313 0.35659474 0.2434826 0.38735005
000070 5a 0b b0 3e 49 a6 ff 3d 5a ed 7d be ec f3 4b be
       0.3438366 0.12482888 -0.24797574 -0.19917268
000080 02 39 c3 3e 57 5e 0e 3e 54 05 27 be 2a ea e3 3d
       0.3812943 0.13903175 -0.16310626 0.111286476
000090 6c 3e 65 be be 88 da be 74 8f f7 bd da 53 1a 3e
       -0.22387093 -0.4268245 -0.120879084 0.1507105
0000a0 c9 a4 a8 3e d2 12 39 3e de 53 38 be c2 31 b4 3e
       0.3293822 0.18073586 -0.18000743 0.35194212
0000b0 6d 7e be 3e 3b 65 77 3e 18 e0 11 be 6c fe 25 3e
       0.3720583 0.2415971 -0.14245641 0.16210335
0000c0 0d a6 af 3e bb ce 3b 3e 0c 27 b3 3e 38 7a 5c be
       0.34306374 0.1834058 0.34990728 -0.21530998
0000d0 47 1b aa 3e bc 1c d4 bd 0a ad d3 be c8 f8 6f 3e
       0.33223936 -0.10357043 -0.41342956 0.23434746
0000e0 88 be a0 bd a0 73 94 3e a1 f4 31 be 2f 65 20 3e
       -0.07848841 0.28994465 -0.17378475 0.15663598
0000f0 42 54 1f 3e 70 74 17 be b9 02 8d 3e ee 39 54 be
       0.15559486 -0.14790511 0.2754114 -0.20725223

weight f4 [32, 64]
000000 e6 6b e6 ba 1c 00 07 3e 53 6a 48 3c b8 45 57 3c
       -0.0017579764 0.13183635 0.012232381 0.013139181
000010 a1 72 cf bb 2b e7 2a bb 97 f1 18 3e c7 3e 06 3e
       -0.0063308035 -0.0026077728 0.14935909 0.13109885
000020 8a 2b 11 3e 82 66 08 3e 47 06 61 3c 11 c2 e8 3d
       0.14176765 0.13320354 0.013734407 0.1136514
000030 23 84 81 bc 49 d9 01 3e 2b 66 1f 3e 79 4d b3 3b
       -0.015810078 0.12680544 0.15566318 0.005471882
000040 01 64 cf bb 91 d6 12 3e eb 41 0c 3e 5e 2b 00 3e
       -0.00632906 0.14339663 0.1369702 0.12516543
000050 dd 6f fd 3b e0 0d 7f 3c 72 0c 11 3e 06 61 03 3e
       0.0077342824 0.015567273 0.14164904 0.1282998
000060 98 6a bd bb c1 f4 1d 3e 3a 17 20 3d 49 09 11 3e
       -0.005780529 0.15425397 0.03908465 0.14163698
000070 09 48 0b 3e e0 81 09 3e 8a 9e 93 bc 7c 51 a2 bb
       0.13601698 0.1342845 -0.018019933 -0.0049535614
000080 7a 8d 16 3e 5a a3 fb 3d c3 60 99 3c 50 b7 06 3e
       0.14702407 0.12287016 0.018722897 0.13155866
000090 6b 77 5f bc fa a5 f8 be 60 f7 9d 3c d6 d4 05 3e
       -0.013639311 -0.4856413 0.019282997 0.13069472
0000a0 29 fe f9 3d dd ca 12 3e 67 44 db bb 8f d7 23 3e
       0.1220668 0.14335199 -0.006691504 0.16000198
0000b0 d5 2c 10 3e fd 07 06 3e 61 f2 27 3c 80 53 0c 3e
       0.14079602 0.13088985 0.010250659 0.13703728
0000c0 0a c5 13 3e 4a 4d 0f 3e c8 39 1e 3e 07 9c 95 3b
       0.14430633 0.13994327 0.1545173 0.004565719
0000d0 be 7a 11 3e 5e 29 3a bc ee 00 12 be a3 5c 00 3e
       0.14206979 -0.011362402 -0.14258167 0.12535338
0000e0 90 30 51 b9 6f ff 14 3e e9 87 34 bc 78 77 0e 3e
       -0.00019949884 0.14550565 -0.011018732 0.13912761
0000f0 db 8c 09 3e 1d fa d3 bb 9e 49 10 3e 73 af bd ba
       0.13432638 -0.006469025 0.14090583 -0.0014471844
000100 94 85 fb 3b 26 21 3b b8 d8 f9 d3 bb bb b5 f7 bc
       0.007675836 -4.4615146e-05 -0.0064689927 -0.030238023
000110 17 42 f2 3b d5 7f 51 bb a6 54 29 bb 6d 82 13 bc
       0.0073931324 -0.0031967063 -0.0025837808 -0.009003264
000120 55 9c 49 bb 07 d1 88 38 40 88 2b 3c 2c f5 5a bc
       -0.0030763347 6.52392e-05 0.010469496 -0.013364118
000130 56 60 83 bb a5 f1 b6 3a 02 2d 8f 39 b8 73 6e bb
       -0.004009287 0.0013957514 0.0002730862 -0.0036384892
000140 f8 72 9a bb 86 a6 ab 3b 39 ed 13 3a 10 a2 28 3c
       -0.0047134124 0.005238357 0.0005642954 0.010292545
000150 26 97 ec 3b 29 fd cb bb 38 12 9b 39 5b ae 1f bc
       0.0072201667 -0.0062252474 0.00029577478 -0.009746159
000160 1e 39 a2 bb ca b5 66 bc c9 48 70 3b d9 56 22 3a
       -0.0049506566 -0.014081428 0.0036664477 0.0006192751
000170 b2 67 05 b9 89 a8 62 39 4d 74 26 bc d0 18 37 bc
       -0.00012722498 0.00021615824 -0.010159564 -0.011175349
000180 a9 d7 38 ba 6f 87 44 3b e3 3f a2 3b 3e f4 38 bc
       -0.0007051179 0.0029987951 0.0049514635 -0.011288701
000190 3e 0a 16 bb bd 64 5c 3c f7 bc c6 ba 6f ff be 3b
       -0.0022894288 0.013451752 -0.0015162517 0.00582879
0001a0 58 2a e2 3b 53 7a 9a bb b9 25 e0 3b 80 3d 7c bc
       0.0069020204 -0.004714289 0.0068404344 -0.015395522
0001b0 be 5f c1 3c d2 28 0b 3b d5 2a 03 3c d4 e2 44 bc
       0.023605224 0.0021234048 0.008005817 -0.012016971
0001c0 e1 63 a5 3c 6a 55 0c bb d0 44 32 3c 19 02 31 3b
       0.020189228 -0.0021413215 0.010880664 0.0027009307
0001d0 fb 8a 28 bc 7b b4 0b 3c 30 e3 a8 3b 3c 88 09 3a
       -0.010287042 0.008526917 0.005154036 0.0005246436
0001e0 b2 ed 08 bc 8d 68 15 3b 36 b6 02 3c b8 be 7b bb
       -0.008357452 0.0022797913 0.007978013 -0.0038413238
0001f0 06 98 49 b9 e1 1c 61 3b 09 dc a0 bb 61 9c 17 3c
       -0.00019225487 0.0034349489 -0.0049090427 0.009253592
000200 30 97 98 bc ec 9e 01 bc 4f 60 78 3c 07 01 d8 bb
       -0.01862678 -0.007911425 0.0151596805 -0.0065919193
000210 aa 76 db 3b 41 2e a5 ba 9d 7f f9 3b c4 a5 8a bc
       0.0066974955 -0.0012602286 0.0076140896 -0.016924746
000220 ea a5 e2 bb 1d 91 0d bb 17 65 e0 3b e6 2a 3b 3c
       -0.006916751 -0.0021601387 0.0068479883 0.011423802
000230 0e d3 4a bb b9 8b c4 3b 14 e5 e4 bc 70 44 27 3c
       -0.0030948552 0.0059981016 -0.027941264 0.010209188
000240 20 ca 64 3b ae 30 9b ba d9 aa 24 39 37 5d ac bc
       0.0034910515 -0.0011840069 0.00015703905 -0.021040542
000250 2b 1f 61 3c ab 50 2f bc b0 09 e6 bb fb 1a a3 bb
       0.013740341 -0.010700385 -0.007020198 -0.0049775816
000260 b7 85 e2 3b a0 9a b3 39 b0 cd de 3a 5b ef 8c 3c
       0.0069129127 0.00034256745 0.0016998556 0.017203977
000270 c0 98 63 3c 2b a2 35 3b 34 74 5d bb 22 be 87 3b
       0.013891399 0.0027715068 -0.0033791186 0.0041425386
000280 20 ed 8b ba 01 51 c3 3b cd 95 17 3c 29 69 c0 ba
       -0.0010675527 0.005960584 0.009252024 -0.0014679778
000290 4a d1 fb bb c6 33 01 bb 2a 1e 70 3c 69 c4 c0 3a
       -0.0076848613 -0.0019714697 0.014655629 0.0014706972
0002a0 51 88 8b 3b e6 fd 95 bc 4b 39 a2 bc 39 3a bf b9
       0.0042581935 -0.018309545 -0.01980271 -0.00036473738
0002b0 8f 82 33 3b cb 1e 3d 3c 75 41 c9 3c 62 60 ef bb
       0.0027391051 0.011542986 0.024567345 -0.007305191
0002c0 3d 98 d0 bb d3 ef c0 b9 12 64 88 bb b9 6c ae 3a
       -0.0063658045 -0.00036799777 -0.00416232 0.0013307548
0002d0 0c 87 d9 3b 1c 6a 81 3a 3e 30 6d bc 81 75 e8 bb
       0.0066384133 0.0009873542 -0.014476834 -0.0070940857
0002e0 1d d2 ff bb a5 32 cd 3b 17 d0 8b bc 50 bd 51 3c
       -0.00780703 0.006262141 -0.017066998 0.012801483
0002f0 26 67 71 ba 24 0a 2e 3b aa 14 e2 bb b6 7c a0 3a
       -0.0009208791 0.0026556337 -0.006899436 0.0012244198
000300 29 26 cf 3b 1d 7c 63 bd b0 88 44 bc f2 ad 85 b9
       0.0063216877 -0.055538286 -0.011995479 -0.00025497336
000310 06 db c5 3b 39 b1 f2 ba cc f6 67 bd 03 5d 08 bd
       0.0060380725 -0.0018515951 -0.05663185 -0.033291828
000320 15 8c 08 bd b7 b3 0b bd 1e 1d 4d 3b 3f 37 4b bd
       -0.033336718 -0.034106936 0.0031297873 -0.049613234
000330 ed 44 10 bc 2b 1d 64 bd cf cd 3d bd 0a 83 c9 bb
       -0.008805496 -0.05569188 -0.046338852 -0.0061496543
000340 0f ac 57 3c 5f c9 0a bd 42 11 7b bd e9 6a 58 bd
       0.013163581 -0.03388345 -0.061295755 -0.052836332
000350 bd a2 59 3a 37 d7 5a 3b 8d cb 10 bb 5d 34 25 bd
       0.0008302143 0.0033392438 -0.0022093982 -0.04033314
000360 54 4b d1 3a 2c c4 60 bd 6a 57 11 3c 53 9f 8d bd
       0.0015967884 -0.054874584 0.008870939 -0.06915154
000370 ce 79 8e bd 21 ef 14 bd fb f5 36 3a 0f d4 12 bc
       -0.06956826 -0.036360864 0.0006979403 -0.0089616915
000380 1e d0 6c bd c4 1d 4e bd 17 5e aa ba f2 45 8b bc
       -0.057815664 -0.050321355 -0.0012998012 -0.017001126
000390 1b 1a 9e 3b 01 b7 b8 bc 9d 43 13 bc 9c 09 4d bd
       0.0048248894 -0.0225482 -0.008988288 -0.050057992
0003a0 84 e3 15 bd 91 35 7b bd e4 28 b6 3b 0f 77 8e bd
       -0.03659393 -0.06133038 0.0055590738 -0.069563024
0003b0 be d1 50 bd be 72 61 bd 87 2b 3b bc 45 18 55 bd
       -0.050981276 -0.055041067 -0.011423952 -0.0520251
0003c0 8b be 30 bd 8c f3 4e bd 04 7c 38 bd 7d 24 f3 bb
       -0.043150466 -0.050525233 -0.045040146 -0.007420121
0003d0 e6 cc 91 bd 15 98 ea 3b 20 d8 9e 3c 89 03 5b bd
       -0.071191594 0.007159243 0.019390166 -0.05347017
0003e0 2b e6 fb 39 04 34 21 bd f8 55 54 bc f1 47 55 bd
       0.0004804594 -0.039356247 -0.01295995 -0.05207056
0003f0 d0 f4 78 bd b2 fd df 3b 28 20 44 bd b7 ed 90 3b
       -0.060780346 0.0068356628 -0.04788223 0.004422869

bias f4 [32]
000000 81 d1 53 3e 6c bc 8e bd c0 9f d2 bd 40 7a 41 bd
       0.20685388 -0.06969532 -0.10284376 -0.047235727
000010 77 fe 2c 3e a0 f1 52 bd 68 29 6b bd fa 6b 78 bd
       0.16893946 -0.051499963 -0.057412535 -0.06064985
000020 5e ca 82 3e ac a4 7c bd ca 06 50 3e a8 5e 2b bd
       0.2554502 -0.06168048 0.2031509 -0.041838318
000030 b1 57 4d bd b8 8b 93 bd d6 34 ed bd 84 7d de bd
       -0.050132457 -0.072043836 -0.11582343 -0.10863784
000040 81 6f 5a 3e ff f1 a8 bc 20 44 16 bc 22 f7 26 3e
       0.21331598 -0.020623205 -0.009171516 0.16305211
000050 64 75 cb bc 38 5e f6 bd 4e 5c 2a bc bc fa 77 3e
       -0.02483625 -0.120296896 -0.010397984 0.24216741
000060 4b 2f 70 be 85 17 27 3e 67 ef c5 bd 4c 64 96 3e
       -0.23455541 0.16317566 -0.09664803 0.29373395
000070 0a 21 2b 3e 46 65 23 be c0 a0 d5 bd 8b cf df bd
       0.16711822 -0.15956602 -0.10431051 -0.109282576

weight f4 [16, 32]
000000 75 d9 a1 3c 9f 86 06 3b 0c dd 78 3b b5 a6 c3 3a
       0.019757012 0.0020527018 0.003797355 0.0014927002
000010 db da 50 bc 7c bc ce 3b 94 40 07 bb bb 09 92 3c
       -0.012747492 0.00630909 -0.0020637857 0.017826905
000020 0d d9 c5 3b 3f 06 83 bb 69 32 b8 3a 4d d3 15 3a
       0.0060378374 -0.0039985473 0.0014053109 0.0005715385
000030 7b 40 76 3b 82 15 a9 3b a0 3b 12 bb 5d 20 ab 3c
       0.0037575054 0.0051600346 -0.0022313371 0.020889455
000040 93 53 b3 3b 4b ee 8f 3c b2 ab 30 3c 6c a5 97 bc
       0.0054726093 0.017569682 0.010783123 -0.018511496
000050 6b 78 08 3c 14 59 8a 3c 1b f2 4f 3c 62 99 74 bc
       0.008329491 0.016888179 0.012692 -0.014929147
000060 22 27 82 bc 94 32 53 3b cb 2e ea 3b ab cb 93 3b
       -0.0158878 0.0032226192 0.0071466914 0.004510363
000070 35 48 b3 3b 50 c6 db 3b 08 d4 09 bb 62 45 a9 ba
       0.0054712542 0.0067069903 -0.0021030921 -0.0012914354
000080 33 30 10 3e 4f 5b 39 bc 6d 6a 9b bb 06 2b 50 3d
       0.14080887 -0.011313274 -0.0047429116 0.05082228
000090 a4 fc 0b 3e d2 f4 1a bc 42 62 53 3b af 27 6e bd
       0.13670594 -0.009457784 0.003225461 -0.058143314
0000a0 79 6b 36 3e fb 40 c4 bc da 37 04 3e 82 d6 48 3d
       0.17814435 -0.023956766 0.1291193 0.049032696
0000b0 1c 00 ee 3c 2e 45 9b ba 20 87 2f bc 6c 23 8c bd
       0.029052787 -0.0011846179 -0.010713369 -0.06842694
0000c0 1a d8 22 3e f3 9b ca 3d d0 e5 f1 b9 2d 53 1a 3e
       0.15902749 0.09893026 -0.00046138326 0.15070792
0000d0 42 6d 4e 3d 1f 03 23 3c 2a 8d a7 3d 94 d5 2a 3e
       0.050397165 0.009949475 0.08181222 0.16683036
0000e0 c7 af 53 bc 5c fe 04 3e ac 29 f5 bc 6d ff 7b be
       -0.012920327 0.12987655 -0.029927097 -0.24609156
0000f0 4f 4a 0d 3e d0 af af bd b2 ec 0e bc 4a bd 57 bd
       0.13797878 -0.085784554 -0.008723425 -0.052670754
000100 95 ec 35 3e b2 e6 c4 bb 18 1a 44 3c 0f d9 46 3d
       0.1776603 -0.0060089463 0.011969112 0.048546847
000110 27 74 1a 3e ea 09 16 3b cb e1 72 3c 56 54 58 bd
       0.15083371 0.0022894093 0.014824341 -0.052814804
000120 d4 e1 2f 3e b0 b8 a0 bb 4d 07 23 3e cb 2d 72 3d
       0.1717599 -0.004904829 0.15920754 0.059125703
000130 13 05 11 3d 76 cd 06 3a 4f 41 d7 ba e6 4f b7 bd
       0.03540523 0.00051423104 -0.0016422662 -0.08950786
000140 3e 1d 1e 3e 50 73 a4 3d 9a 94 96 3b 51 3c 10 3e
       0.15440843 0.080298066 0.0045953514 0.14085509
000150 2b dd 6c 3d 67 74 b6 bb 90 1c 81 3d 3d 33 29 3e
       0.05782811 -0.0055680755 0.06304276 0.16523452
000160 34 cc bb bc 68 1c 13 3e ed 41 03 bd 8f 47 9c be
       -0.02292452 0.14366305 -0.032045294 -0.30523345
000170 00 48 25 3e 02 20 ca bd 94 4a 82 3b 7a b6 40 bd
       0.16140747 -0.09869386 0.0039761756 -0.047049023
000180 e9 fa 3d 3c d6 ff b0 3a 54 b2 8e bc 83 55 6a 3c
       0.011595466 0.001350398 -0.017419018 0.014302614
000190 cd 70 8f 3b e1 35 ca ba e1 c7 4a bc c5 90 51 3c
       0.0043774606 -0.0015427434 -0.012376756 0.012790863
0001a0 3c 8d 88 bc 9e d7 ff 3b af ee cc bb 0f da 81 bc
       -0.016668908 0.007807686 -0.0062540392 -0.015851049
0001b0 5b c5 85 3c 7d e8 08 ba 4f ce 00 bc 3b 38 27 3c
       0.016329458 -0.0005222632 -0.007861688 0.0102062775
0001c0 1d 65 fc bb 54 34 24 bb d5 17 3a 3c 0b bc f4 3a
       -0.0077024833 -0.0025055604 0.011358221 0.0018671764
0001d0 b3 61 3f bc bd 6d b5 3b 0b a3 14 bc 12 29 0d bc
       -0.011681008 0.0055367635 -0.009072076 -0.008615749
0001e0 40 fd be ba 23 69 8c b9 29 c5 45 3b 96 de 08 3c
       -0.0014571324 -0.00026781214 0.003017733 0.00835385
0001f0 80 c6 77 38 70 60 1c bc 36 de a6 b9 3f 23 84 bb
       5.9074257e-05 -0.009544477 -0.00031827547 -0.004032522
000200 37 eb d1 3d 0e 15 2c bc 5d 68 91 3c 84 e7 86 bd
       0.10249942 -0.010503067 0.01774996 -0.06587127
000210 db 01 bd 3d cf 49 a6 3c c6 da c0 b9 da 9f 21 be
       0.092288695 0.020298867 -0.00036784093 -0.15783635
000220 50 0e f6 3d 5f 01 00 3c 88 d8 da 3d 97 86 68 bd
       0.12014449 0.007812827 0.10685831 -0.05676898
000230 dc 32 05 bd 9b 0a 8a bc 40 e8 3a 3a 33 6f 92 bd
       -0.032519206 -0.01685076 0.0007129945 -0.07150116
000240 2b 07 ec 3d 6d a9 53 bd 7b 51 e2 ba 4e e6 b8 3d
       0.11524805 -0.05167525 -0.0017266715 0.09028302
000250 2e 5a 25 bd a8 ea 92 3a ea e6 5a bd 73 9e df 3d
       -0.040369205 0.0011208849 -0.053442873 0.10918894
000260 d2 ae 9e bc 2f c5 f0 3d 31 2f 0d be f8 62 35 be
       -0.01937047 0.1175636 -0.13787533 -0.17713535
000270 aa 71 03 3e 7f 62 9e bd 6a 12 bb 3b 2d b6 bc bd
       0.12836328 -0.077336304 0.0057089822 -0.09214435
000280 42 09 82 bd 38 05 e6 3b f9 bb e7 b9 f4 01 28 ba
       -0.06349422 0.007019665 -0.00044199804 -0.00064089824
000290 61 7b 99 bd 4f a0 e8 3b 99 3d 7c bb 72 15 da bb
       -0.07494236 0.0070991884 -0.0038488864 -0.0066553885
0002a0 45 4b 68 bd dd a7 4d bb f2 97 69 bd ad 8b 9c 3c
       -0.056712408 -0.0031380572 -0.057029672 0.019109571
0002b0 49 fc 8e 3b 6b 45 89 bb 78 b4 f2 bb 13 33 4d 3c
       0.004363571 -0.0041891835 -0.0074067675 0.012524384
0002c0 18 eb 8b bd 29 1e c8 bb 90 2d 16 bc e9 c0 6a bd
       -0.0683195 -0.006107111 -0.009166136 -0.05731288
0002d0 1e 63 61 bb e7 43 1d 3c 57 18 85 3c 5e ee 83 bd
       -0.0034391354 0.009598709 0.016246958 -0.06441949
0002e0 f0 f3 02 3c ad 38 67 bd 70 2e d4 ba 75 92 c8 3b
       0.00799273 -0.056450535 -0.0016188156 0.0061209747
0002f0 38 c1 47 bd a3 f3 0b bd 80 a1 91 3b 32 cc 50 bc
       -0.048768252 -0.034167897 0.004444301 -0.012743996
000300 1c 79 13 3e 9e 3b fb 3b 17 91 18 3b ef 2e 85 bd
       0.14401668 0.007667019 0.002327984 -0.065030925
000310 70 7c e9 3d 88 39 05 3b 19 c9 4f bc 94 6a af bd
       0.11400688 0.002032848 -0.012682223 -0.0856525
000320 b6 af 1b 3e 66 46 54 bb 3d 30 08 3e d8 06 45 bd
       0.15203747 -0.0032390594 0.13299651 -0.04810223
000330 ba b3 20 bd d4 eb 18 3c c6 71 00 bc 22 b0 85 bd
       -0.0392339 0.00933357 -0.007839626 -0.06527735
000340 d7 af 0b 3e b0 2c aa 3c c0 72 86 bb b2 d6 e7 3d
       0.13641296 0.020773262 -0.0041030347 0.11320247
000350 17 5f 84 bd 2b 23 9c 3b 52 61 35 3d a2 df 16 3e
       -0.064634494 0.0047649345 0.044282265 0.14733747
000360 6c 57 a3 bc 9e b6 ed 3d fe 30 70 bd 20 3b 66 be
       -0.019939147 0.11607097 -0.058640473 -0.22483492
000370 3f bc 0c 3e 1f c7 84 bd a6 f5 5b 3a 21 13 80 bd
       0.13743685 -0.06483292 0.00083907915 -0.062536485
000380 e2 65 27 3c a8 74 80 3b 8d 25 0e 3c 2b 4c 3c 3c
       0.010217162 0.0039201565 0.008675945 0.011492769
000390 98 8b 5f bc 70 0c c9 3b 25 3f 83 bb 89 b8 99 3b
       -0.013644122 0.006135516 -0.00400533 0.0046911878
0003a0 a2 09 83 bb e0 e9 b4 ba 8c 18 97 bb 60 2f 85 bc
       -0.003998951 -0.001380261 -0.0046110805 -0.016257942
0003b0 4a e4 32 bb 49 61 00 3a 18 b3 31 bb dd 15 b7 3b
       -0.0027296715 0.0004897309 -0.0027114805 0.005587323
0003c0 51 2a 0d bc 12 e1 15 3b 23 ac 8f bb 04 1e ab 3a
       -0.008616046 0.0022869748 -0.004384534 0.001305521
0003d0 2d 09 13 3b bb 31 49 bc 17 d9 f1 3b e5 98 49 bc
       0.002243589 -0.012279923 0.0073806155 -0.012304519
0003e0 59 19 83 bc 75 19 66 3a 62 04 22 3c 3e 67 3e 3c
       -0.016003298 0.0008777597 0.00988874 0.011621295
0003f0 82 61 91 bc aa 3c 11 bc dd 1f 77 3c 37 e9 cb ba
       -0.01774669 -0.008864561 0.01508328 -0.0015557174

bias f4 [16]
000000 2f 81 34 be ca 95 93 3e 0e 29 af 3e cc 2a 25 bd
       -0.17627405 0.28825217 0.3421101 -0.040324017
000010 83 5f 5c 3e 56 16 31 be 46 a0 8b 3e 1d e7 c4 bd
       0.2152081 -0.17293677 0.27270716 -0.09614394
000020 69 54 82 be c0 23 8b 3e 48 4c bf bd 52 a0 62 3e
       -0.25455025 0.27175713 -0.09340721 0.2213147
000030 34 ae a4 bd e1 c0 1d be 32 33 f1 bd a3 94 fa bc
       -0.08041039 -0.15405609 -0.11777343 -0.030588454

weight f4 [8, 16]
000000 63 23 03 3b da ed 7e bd b4 17 91 bd f0 93 4a 3c
       0.0020010106 -0.06223855 -0.07084599 0.012364373
000010 10 c7 8d bd 77 38 21 3c a9 62 82 bd d9 ba 3a 3c
       -0.06922734 0.009840122 -0.06366474 0.011397087
000020 81 28 16 bc f2 56 99 bd 90 0a 71 bd 64 c6 70 bd
       -0.00916493 -0.074872866 -0.058847964 -0.05878295
000030 bb 25 c4 3a b9 3c 0d bc a2 aa 4c bd df bc 1e 3c
       0.0014964858 -0.008620434 -0.049967416 0.009688585
000040 7b c7 62 bb 68 ff aa 3d 3d ee a4 3d 81 23 1b bc
       -0.0034603763 0.08349496 0.08053253 -0.009468914
000050 e4 78 3c 3d 6c a8 31 3c dc 7c ad 3d 0b 9b 40 3c
       0.046013728 0.010843378 0.08471081 0.011755715
000060 73 76 ba be 61 5c 24 3d a9 d1 99 bd ee 2b 8b 3d
       -0.36418495 0.040127162 -0.075106926 0.06795488
000070 71 89 91 3c 7d 81 93 3b 8c 05 3f bd a9 6e 49 3c
       0.017765732 0.00450152 -0.04663615 0.01229445
000080 f7 c1 a9 3a a3 a9 f2 3d 38 4e 20 3e 8c 23 dd bb
       0.0012951483 0.11848762 0.15654838 -0.0067486223
000090 bc e3 00 3e e0 c1 78 3c 54 c5 1b 3e 9c 5c 41 3b
       0.12586874 0.015182942 0.15211993 0.0029504662
0000a0 c1 6a 6a be 62 0c d3 3d d7 3e b6 bd 49 a2 fd 3d
       -0.22892286 0.10305096 -0.088987045 0.12384469
0000b0 b5 8d e7 bb 25 26 52 ba 35 47 21 bd 38 2f 46 3c
       -0.0070664533 -0.0008016548 -0.03937455 0.012096219
0000c0 9c 8d fd ba 17 1a 34 3e 7a 61 20 3e bb e8 ee bb
       -0.0019344571 0.17588077 0.15662184 -0.007290927
0000d0 f5 aa 00 3e 27 72 6b 3c 87 04 29 3e 20 9c 36 3b
       0.12565215 0.014370478 0.16505633 0.0027864054
0000e0 be 99 19 be 3c b8 fc 3d 1c b7 a3 bd 55 f0 1f 3e
       -0.15000054 0.123398274 -0.0799391 0.15619023
0000f0 8d 69 c1 3b 36 9d 18 bc 85 2c 58 bd 69 7b 89 b9
       0.005902475 -0.009314826 -0.052776832 -0.00026222624
000100 fd b1 a4 3a 5f 7c 23 3e 48 06 39 3e 7b 91 ab bb
       0.0012565252 0.15965413 0.18068802 -0.0052358485
000110 40 cf f4 3d 2c fe 02 3b 3c d2 20 3e f2 6f 11 39
       0.11953592 0.0019987924 0.15705198 0.0001386998
000120 ce cc c6 bc e5 c0 e3 3d 4f 65 a4 bd 06 2a 0d 3e
       -0.02426758 0.11120776 -0.080271356 0.13785562
000130 6b 2b 4e bb 95 b8 67 bb 05 37 7c bd 92 f0 81 3b
       -0.0031458985 -0.0035357822 -0.06157591 0.003965446
000140 54 e9 17 3c f6 43 9c bd 6c 3e 8b bd f0 65 d4 3a
       0.009271938 -0.0763015 -0.067990154 0.0016204696
000150 37 29 9e bd e1 4e 79 bc 22 b1 9b bd b3 92 48 3b
       -0.07722705 -0.01521656 -0.07602145 0.0030605018
000160 73 1b 2d 3c 46 fa b6 bd d7 4f ab bc 35 6e 9b bd
       0.010565626 -0.089344546 -0.020912094 -0.0758938
000170 ca df cc ba 69 e2 a3 3c 8f a8 02 3c 38 5a 10 bc
       -0.0015630659 0.020005422 0.007974758 -0.008810572
000180 74 07 4f 3c 9c 07 3e 39 2e 58 32 3c 6d 49 17 3b
       0.012636054 0.00018122647 0.0108852815 0.0023084537
000190 52 8a b0 3c d9 7f 31 3c 07 f3 61 bc d6 1a 98 bb
       0.021550331 0.010833704 -0.013790852 -0.004641871
0001a0 92 5b 02 bb 1c 0a 94 ba 8f d4 17 3c c6 eb 7b bc
       -0.0019891006 -0.0011294517 0.0092669865 -0.015376037
0001b0 fb c6 2c bc 79 4e 28 3c 7c e2 00 3c e2 48 8c bc
       -0.0105454875 0.010272616 0.007866498 -0.017124597
0001c0 ce ff 16 bb 02 cf 21 3e 5a 01 24 3e a6 f2 5c 3b
       -0.0023040655 0.15801623 0.1601614 0.0033713966
0001d0 e4 10 0b 3e 62 9c 1d 3c 82 a5 0a 3e 7d 55 37 3c
       0.13580662 0.009619804 0.13539699 0.011189816
0001e0 05 bd 1c be 13 65 d3 3d b3 7c b7 bd 3e 3c 08 3e
       -0.1530648 0.10322013 -0.08959331 0.1330423
0001f0 c3 05 ef 3b 0f c4 d8 bb f9 f4 63 bd 7e 4a 5e 3c
       0.007294388 -0.006615169 -0.055653546 0.013567565

bias f4 [8]
000000 98 4a 10 be ea 81 a8 3d 31 13 b7 3c ef 52 07 3c
       -0.14090955 0.08227904 0.022348018 0.008259519
000010 2e bb f7 3b e5 37 48 be 38 61 2c be 53 00 85 3c
       0.0075601554 -0.19552572 -0.16833961 0.016235506

weight f4 [1, 8]
000000 50 08 5f 3d 69 43 95 bd 27 5f 04 be a0 c4 1a be
       0.054451287 -0.07288248 -0.12926923 -0.15114069
000010 a2 6d 1a be 57 2d 81 3d 9f 07 a5 bb 2b 19 0c be
       -0.15080884 0.06307476 -0.005036309 -0.13681476
